Model: "half_life_pred"
_________________________________________________________________
 Layer (type)                Output Shape              Param #   
=================================================================
 input_1 (InputLayer)        [(None, 2048)]            0         
                                                                 
 dense (Dense)               (None, 300)               614700    
                                                                 
 dense_1 (Dense)             (None, 300)               90300     
                                                                 
 dense_2 (Dense)             (None, 300)               90300     
                                                                 
 dense_3 (Dense)             (None, 300)               90300     
                                                                 
 dense_4 (Dense)             (None, 300)               90300     
                                                                 
 dense_5 (Dense)             (None, 1)                 301       
                                                                 
=================================================================
Total params: 976,201
Trainable params: 976,201
Non-trainable params: 0
_________________________________________________________________
None
Epoch 1/300
  1/155 [..............................] - ETA: 10:23 - loss: 0.9950
…
